…
<span class="sd">&quot;&quot;&quot;</span>
<span class="n">D</span><span class="p">,</span> <span class="n">G</span> <span class="o">=</span> <span class="n">build_network</span><span class="p">(</span><span class="n">d_conv_dim</span><span class="p">,</span> <span class="n">g_conv_dim</span><span class="p">,</span> <span class="n">z_size</span><span class="p">)</span>
</pre></div>

    </div>
</div>
</div>

<div class="output_wrapper">
<div class="output">


<div class="output_area">

    <div class="prompt"></div>


<div class="output_subarea output_stream output_stdout output_text">
<pre>Discriminator(
  (conv1): Sequential(
    (0): Conv2d(3, 32, kernel_size=(4, 4), stride=(2, 2), padding=(1, 1), bias=False)
  )
  (conv2): Sequential(
    (0): Conv2d(32, 64, kernel_size=(4, 4), stride=(2, 2), padding=(1, 1), bias=False)
    (1): BatchNorm2d(64, eps=1e-05, momentum=0.1, affine=True, track_running_stats=True)
  )
  (conv3): Sequential(
    (0): Conv2d(64, 128, kernel_size=(4, 4), stride=(2, 2), padding=(1, 1), bias=False)
    (1): BatchNorm2d(128, eps=1e-05, momentum=0.1, affine=True, track_running_stats=True)
  )
  (fc): Linear(in_features=2048, out_features=1, bias=True)
)

Generator(
  (fc): Linear(in_features=100, out_features=2048, bias=True)
  (t_conv1): Sequential(
    (0): ConvTranspose2d(128, 64, kernel_size=(4, 4), stride=(2, 2), padding=(1, 1), bias=False)
    (1): BatchNorm2d(64, eps=1e-05, momentum=0.1, affine=True, track_running_stats=True)
  )
  (t_conv2): Sequential(
    (0): ConvTranspose2d(64, 32, kernel_size=(4, 4), stride=(2, 2), padding=(1, 1), bias=False)
    (1): BatchNorm2d(32, eps=1e-05, momentum=0.1, affine=True, track_running_stats=True)
  )
  (t_conv3): Sequential(
    (0): ConvTranspose2d(32, 3, kernel_size=(4, 4), stride=(2, 2), padding=(1, 1), bias=False)
  )
)
</pre>
</div>
</div>

</div>
</div>

</div>
<div class="cell border-box-sizing text_cell rendered"><div class="prompt input_prompt">
</div><div class="inner_cell">
<div class="text_cell_render border-box-sizing rendered_html">
<h3 id="Training-on-GPU">Training on GPU<a class="anchor-link" href="#Training-on-GPU">&#182;</a></h3><p>Check if you can train on GPU. Here, we'll set this as a boolean variable <code>train_on_gpu</code>. Later, you'll be responsible for making sure that</p>
…
